…
&lt;span class=&quot;nb&quot;&gt;print&lt;/span&gt;&lt;span class=&quot;p&quot;&gt;(&lt;/span&gt;&lt;span class=&quot;n&quot;&gt;model&lt;/span&gt;&lt;span class=&quot;o&quot;&gt;.&lt;/span&gt;&lt;span class=&quot;n&quot;&gt;summary&lt;/span&gt;&lt;span class=&quot;p&quot;&gt;())&lt;/span&gt;
&lt;/pre&gt;&lt;/div&gt;

    &lt;/div&gt;
&lt;/div&gt;
&lt;/div&gt;

&lt;div class=&quot;output_wrapper&quot;&gt;
&lt;div class=&quot;output&quot;&gt;

&lt;div class=&quot;output_area&quot;&gt;

&lt;div class=&quot;output_subarea output_stream output_stdout output_text&quot;&gt;
&lt;pre&gt;Model: &amp;#34;sequential_8&amp;#34;
_________________________________________________________________
Layer (type)                 Output Shape              Param #   
=================================================================
conv2d_39 (Conv2D)           (None, 32, 32, 96)        2688      
_________________________________________________________________
conv2d_40 (Conv2D)           (None, 32, 32, 96)        83040     
_________________________________________________________________
max_pooling2d_10 (MaxPooling (None, 16, 16, 96)        0         
_________________________________________________________________
dropout_10 (Dropout)         (None, 16, 16, 96)        0         
_________________________________________________________________
conv2d_41 (Conv2D)           (None, 16, 16, 192)       166080    
_________________________________________________________________
conv2d_42 (Conv2D)           (None, 16, 16, 192)       331968    
_________________________________________________________________
max_pooling2d_11 (MaxPooling (None, 8, 8, 192)         0         
_________________________________________________________________
dropout_11 (Dropout)         (None, 8, 8, 192)         0         
_________________________________________________________________
conv2d_43 (Conv2D)           (None, 8, 8, 192)         331968    
_________________________________________________________________
conv2d_44 (Conv2D)           (None, 8, 8, 192)         37056     
_________________________________________________________________
conv2d_45 (Conv2D)           (None, 8, 8, 10)          1930      
_________________________________________________________________
global_average_pooling2d_4 ( (None, 10)                0         
_________________________________________________________________
dense_4 (Dense)              (None, 10)                110       
=================================================================
Total params: 954,840
Trainable params: 954,840
Non-trainable params: 0
_________________________________________________________________
None
&lt;/pre&gt;
&lt;/div&gt;
&lt;/div&gt;

&lt;/div&gt;
&lt;/div&gt;

&lt;/div&gt;
    

    
    
&lt;div class=&quot;cell border-box-sizing code_cell rendered&quot;&gt;
&lt;div class=&quot;input&quot;&gt;
…
